app/src/main/ml/tf_cry_classifier.tflite (tflite, 182124 bytes, 8 tensors)

sequential_2/dense_9/BiasAdd/ReadVariableOp f4 [200]
0	0xbc991863	-0.018688386
1	0xbc0857ac	-0.008321684
2	0xbbfea1ef	-0.007770769
3	0xbd40719a	-0.04698334
4	0xbd6c0727	-0.05762401
5	0xbccfdd2f	-0.025374023
6	0xbb88aecf	-0.0041712294
7	0xbd183bfa	-0.037166573
8	0xbcc23123	-0.02370507
9	0xbca7b2be	-0.020470973
10	0x3ce39000	0.027778625
11	0xbd2d55c6	-0.042318128
12	0xbcd8f893	-0.026485717
13	0xbd1a35a9	-0.03764883
14	0x3d554dee	0.052076273
15	0xbd930e3d	-0.0718045
16	0x3d4e0a70	0.050302923
17	0xbbb352e9	-0.00547253
18	0xbd88d4b8	-0.06681198
19	0xbd1e68c0	-0.038674116
20	0x3d5394fa	0.051655747
21	0xbbf218a6	-0.007388192
22	0xbd58906e	-0.052872114
23	0x3c023c73	0.0079489825
24	0xbdb329f1	-0.08748234
25	0xbcd06a0d	-0.025441194
26	0xbcc0932f	-0.023507683
27	0xbc9b475a	-0.018954922
28	0x3c498fe7	0.012302375
29	0xbd1e5055	-0.03865083
30	0xbd13c054	-0.03607209
31	0x3d272269	0.0408043
32	0xbc1d6600	-0.009606838
33	0xbd655ad6	-0.05599483
34	0xbcc38a5e	-0.02386969
35	0xbd8ba07d	-0.0681772
36	0xbc2bed47	-0.010493583
37	0xbd64cadd	-0.055857528
38	0xbd3784cc	-0.04480438
39	0xbd7eb14f	-0.062180813
40	0xbcfdd515	-0.030985394
41	0xbd2f007d	-0.042725075
42	0xbd0e27f3	-0.034706067
43	0xbd85cc5b	-0.06533118
44	0xbd6a15fd	-0.057149876
45	0xbd0e2243	-0.034700643
46	0xbd041b56	-0.032252632
47	0x3c9e94a3	0.019357985
48	0xbd374791	-0.044745985
49	0xbb385b55	-0.002813061
50	0x3bb8ea17	0.00564314
51	0x3cc778cc	0.024349593
52	0xbd6b15a5	-0.05739369
53	0xbcb87950	-0.022518784
54	0xbd49e83b	-0.049293738
55	0xbad336de	-0.0016114374
56	0xbcbf61ff	-0.023362158
57	0x3c03a88d	0.008035791
58	0xbd7311bd	-0.05934309
59	0xbd3bc134	-0.04583855
60	0x3ca7df9b	0.020492366
61	0xbd47a73c	-0.04874347
62	0xbd7870a1	-0.060654286
63	0xbce23562	-0.027613346
64	0x3d9bda85	0.07610039
65	0x3d3babcf	0.045818146
66	0xbd6530d7	-0.05595478
67	0xbc323bf8	-0.0108785555
68	0xbd058977	-0.0326018
69	0xbd77f348	-0.060534745
70	0x3d3c5ff6	0.045989953
71	0xbd82ad7b	-0.06380745
72	0xbc3b366b	-0.0114265485
73	0x3ccfe432	0.025377367
74	0xbcbe73de	-0.02324861
75	0xbcdd8876	-0.027042609
76	0x3ad63ba2	0.0016344676
77	0xbd77c678	-0.06049201
78	0x3c58d611	0.013234631
79	0xbcfdb834	-0.030971624
80	0xbc926498	-0.017870232
81	0xbb968958	-0.0045940094
82	0xbdbb2e70	-0.091397166
83	0x3c132f41	0.008983434
84	0x3d439213	0.04774673
85	0xbd1748fb	-0.036934834
86	0xbd2d927f	-0.042376038
87	0xbd1981e7	-0.0374774
88	0xbc92f456	-0.017938774
89	0x3c7ca929	0.01542119
90	0x3dbd749f	0.09250759
91	0xbd211cbc	-0.039334044
92	0xbcb0ed54	-0.021597542
93	0xbb835aeb	-0.004008641
94	0xbce6cfe3	-0.0281753
95	0xbd21e690	-0.039526522
96	0x3cc31b6b	0.023816785
97	0x3d617ea2	0.055052407
98	0x3da6be0a	0.08141716
99	0xbd55b8f0	-0.052178323
100	0xbc7afd30	-0.015319154
101	0xbceea578	-0.029131636
102	0xbc879447	-0.016550196
103	0xbbf85e37	-0.0075795907
104	0xbc527357	-0.012844882
105	0xbd17c506	-0.03705313
106	0xbd7045dd	-0.058660377
107	0xbc311663	-0.01080856
108	0xbd05ae17	-0.03263673
109	0xbbc23bd9	-0.0059275446
110	0x3d2930d1	0.04130632
111	0xbcdd1b5e	-0.026990589
112	0xbbe8e0d6	-0.0071068807
113	0x3d93f16c	0.07223782
114	0xbd2dfea8	-0.042479187
115	0x3c003843	0.007825914
116	0xbd0f37be	-0.03496527
117	0xbc27282c	-0.010202449
118	0xbd553642	-0.052053697
119	0xbd738e14	-0.059461668
120	0xbd76e898	-0.060280412
121	0x3d382eeb	0.04496662
122	0xbd085a89	-0.033289466
123	0xbd9d6da1	-0.07686926
124	0xbd00ee07	-0.031477
125	0xbd52c013	-0.051452707
126	0xbdbca300	-0.09210777
127	0xbc5503fe	-0.01300144
128	0x3cd5a951	0.026081713
129	0x3da5c653	0.08094468
130	0x3cd1985b	0.025585344
131	0xbd78ab80	-0.06071043
132	0xbd555687	-0.052084472
133	0xbd0ee076	-0.03488203
134	0xbd2892ed	-0.041155744
135	0x3c7abb86	0.015303498
136	0xbd233147	-0.039841916
137	0xbd07e6d1	-0.033179108
138	0xbd3aadca	-0.045575894
139	0x3d9e28b0	0.07722604
140	0xbd8a936d	-0.067664005
141	0xbce9758e	-0.028498437
142	0xbc825849	-0.015911238
143	0xbd5950c9	-0.05305556
144	0xbc15d989	-0.009146103
145	0x3d6339e2	0.055475123
146	0xbba43657	-0.0050113606
147	0xbcfdc9d5	-0.03098003
148	0xbd95b880	-0.07310581
149	0x3ce02331	0.02736053
150	0xbd1e0f42	-0.03858877
151	0x3c85c959	0.016331362
152	0xbd78276b	-0.060584467
153	0xbd450816	-0.048103414
154	0xbd5488b8	-0.051888198
155	0xbd19396d	-0.03740828
156	0xbd2d99e2	-0.042383082
157	0xbcf65c99	-0.03007345
158	0xbc7faebb	-0.015605624
159	0x3d332a3e	0.043741457
160	0x3be041d8	0.0068437867
161	0xbc805b16	-0.015668433
162	0x3c8aecdf	0.016958652
163	0xbc66b2ef	-0.014080747
164	0x3d2395db	0.039937835
165	0x3c82c1e9	0.015961604
166	0xbd4add95	-0.049527723
167	0xbd73bea1	-0.05950797
168	0xbc9b6730	-0.018970102
169	0xbd3d6991	-0.046243254
170	0xbd1dea6c	-0.03855364
171	0xbdd2bfdc	-0.102905005
172	0xbc82c71d	-0.015964085
173	0xbd15ecb7	-0.036602702
174	0xbd31c524	-0.0434009
175	0xbd28f64c	-0.041250512
176	0xbd368985	-0.044564743
177	0xbce33dd0	-0.027739435
178	0xbccd7843	-0.02508176
179	0xbb00414c	-0.001957017
180	0xbd479c3f	-0.048732992
181	0xbcbec037	-0.023285015
182	0x3a1dfe57	0.00060269743
183	0xbcad368d	-0.021144176
184	0xbd807958	-0.062731445
185	0xbd8e766a	-0.069561794
186	0xbcda9cb3	-0.026686048
187	0xbc092014	-0.008369464
188	0xbd1625b2	-0.036657043
189	0xbc8974dc	-0.016779356
190	0x3d84ad85	0.06478409
191	0xbd2485bf	-0.040166613
192	0xbcdfed57	-0.027334852
193	0x3cc79d9f	0.024367152
194	0xbd3560c5	-0.04428174
195	0xbcd29ccc	-0.025709532
196	0xbd0eb4aa	-0.034840263
197	0xbc6b4cf4	-0.014361609
198	0xbcb78c39	-0.02240573
199	0xbd1b61e4	-0.037935153

sequential_2/dense_8/BiasAdd/ReadVariableOp f4 [100]
0	0xbd7411d3	-0.05958731
1	0x00000000	0.0
2	0xbe00c6ca	-0.12575832
3	0xb9952686	-0.00028448197
4	0xbd76c084	-0.06024219
5	0x00000000	0.0
6	0xbd9f45bd	-0.077769734
7	0x3c8e6fe6	0.017387342
8	0xbde84940	-0.11342096
9	0xbcd6ea67	-0.026234819
10	0xbd9515f0	-0.07279575
11	0xbdae1fc7	-0.08502155
12	0xbdc13716	-0.09434335
13	0x00000000	0.0
14	0xbcb744b5	-0.02237163
15	0x3ca42b33	0.02004013
16	0xbdac8d46	-0.08425383
17	0x00000000	0.0
18	0xbc95fb3d	-0.018308276
19	0xbc9c35e5	-0.019068668
20	0xbd5af145	-0.05345275
21	0xbdb3ec37	-0.08785289
22	0xbd532b4e	-0.05155497
23	0x00000000	0.0
24	0xbaaff7cf	-0.0013425293
25	0xbcb461ab	-0.022019228
26	0xbdc95c38	-0.098320425
27	0xbc74778e	-0.014921082
28	0x00000000	0.0
29	0x00000000	0.0
30	0x00000000	0.0
31	0xbd829cb1	-0.06377543
32	0xbc93eb0c	-0.018056415
33	0x00000000	0.0
34	0x00000000	0.0
35	0xbbe4b47e	-0.006979524
36	0xbd99ba8c	-0.07506284
37	0x00000000	0.0
38	0xbd4836fc	-0.048880562
39	0xbdbff345	-0.09372572
40	0xbd9f5dd4	-0.07781568
41	0xbda4bc52	-0.08043732
42	0xbddc894d	-0.107683755
43	0xbcc118ce	-0.023571398
44	0x00000000	0.0
45	0x00000000	0.0
46	0xbcff9b16	-0.03120188
47	0xbd25b712	-0.040457793
48	0xbba767d5	-0.0051088133
49	0xbd95331d	-0.0728514
50	0xbbccf005	-0.0062541985
51	0xbdc1b35a	-0.09458037
52	0x00000000	0.0
53	0xbd9e7914	-0.077379376
54	0x00000000	0.0
55	0xbddc0f92	-0.10745157
56	0x00000000	0.0
57	0x00000000	0.0
58	0xbc1813e1	-0.009282083
59	0x00000000	0.0
60	0xbcc31388	-0.023813024
61	0xbd41dbb9	-0.047328684
62	0xbc1ab174	-0.009441722
63	0x00000000	0.0
64	0xbdbbec65	-0.09175948
65	0xbce41f4e	-0.027846958
66	0x00000000	0.0
67	0xbbf6efb7	-0.0075359005
68	0x00000000	0.0
69	0x00000000	0.0
70	0xbd5551ae	-0.05207985
71	0x00000000	0.0
72	0xbd7bb5f4	-0.06145282
73	0xbd903197	-0.070407085
74	0x3d058a79	0.03260276
75	0x00000000	0.0
76	0xbbff86b4	-0.0077980403
77	0x00000000	0.0
78	0x3ce96d83	0.028494602
79	0x00000000	0.0
80	0xb9c8f5eb	-0.00038330196
81	0xbd5e00ff	-0.05420017
82	0x00000000	0.0
83	0xbc3d97cf	-0.0115718385
84	0x00000000	0.0
85	0xbd8d47e0	-0.06898475
86	0xbcb9c65f	-0.022677599
87	0xbd367549	-0.044545446
88	0xbe00a0f9	-0.12561406
89	0xbd33093a	-0.04370997
90	0xbd68d7a6	-0.056846283
91	0x00000000	0.0
92	0xbdf0a571	-0.117503054
93	0x00000000	0.0
94	0xbc32e195	-0.010918041
95	0x3d35c391	0.04437596
96	0x00000000	0.0
97	0x00000000	0.0
98	0xbdc4c7ff	-0.09608459
99	0x00000000	0.0

sequential_2/dense_11/BiasAdd/ReadVariableOp f4 [5]
0	0xbf6d8a9a	-0.92789614
1	0xbf54021d	-0.82815725
2	0xbf52685e	-0.821905
3	0x3fa6d1a7	1.3032731
4	0xbf53766e	-0.82602584

sequential_2/dense_10/BiasAdd/ReadVariableOp f4 [100]
0	0xbd99f8da	-0.07518168
1	0xbdb84f12	-0.089994565
2	0xbdc28323	-0.094976686
3	0xbd993f97	-0.07482832
4	0xbdf5599b	-0.119799815
5	0xbdec2820	-0.11531091
6	0xbd806c20	-0.06270623
7	0x3e1a3d7d	0.15062518
8	0xbdad1fa6	-0.08453302
9	0xbdaa1555	-0.0830485
10	0xbdb45607	-0.08805471
11	0xbd8e7c9f	-0.06957363
12	0xbe039168	-0.12848437
13	0xbdc5ff02	-0.096677795
14	0xbdb442af	-0.088017814
15	0xbdfcf2b4	-0.123509794
16	0xbdbc6546	-0.09199004
17	0xbdd377e5	-0.103256024
18	0xbdc66711	-0.09687627
19	0xbd9fa537	-0.07795184
20	0xbda3d6df	-0.07999968
21	0xbdf23d9e	-0.11828159
22	0xbdb19848	-0.086716235
23	0xbdaff38c	-0.08591375
24	0xbd97b3e7	-0.074073605
25	0xbdce3c95	-0.10070149
26	0x3ce56648	0.028002873
27	0xbdd1ff11	-0.10253728
28	0xbd7ea31d	-0.062167276
29	0xbdae7be6	-0.085197255
30	0xbbbd4550	-0.005776085
31	0xbdd839be	-0.105578884
32	0xbdb8dd24	-0.09026554
33	0xbd55b3e1	-0.0521735
34	0xbdab6619	-0.08369083
35	0xbce9bd7d	-0.028532738
36	0x3dc8ba0c	0.098011106
37	0xbdc07ecc	-0.093991846
38	0xbcda4f8f	-0.026649265
39	0x3ccc1c2c	0.024915777
40	0xbdb897f8	-0.09013361
41	0xbdbb8716	-0.09156625
42	0xbd850911	-0.0649587
43	0xbdc1398e	-0.09434806
44	0xbdb95ab2	-0.09050502
45	0xbd637ae1	-0.05553711
46	0xbdca9595	-0.09891812
47	0xbdd0302d	-0.10165439
48	0xbdc6a6bf	-0.09699773
49	0x3daf64f0	0.08564174
50	0xbd9750de	-0.07388471
51	0xbdd2a192	-0.10284723
52	0xbdbd1a73	-0.092335604
53	0x3e191e56	0.14952978
54	0xbdb4cb40	-0.08827829
55	0xbd2a9e7d	-0.041655052
56	0xbc4a68db	-0.012354101
57	0xbdd0e944	-0.10200742
58	0x3d2941ef	0.041322645
59	0xbdef0fe2	-0.11672951
60	0x3ce1e1b6	0.027573448
61	0xbdabf3bf	-0.083961
62	0xbda6c235	-0.08142511
63	0x3e48991f	0.19589661
64	0xbdd1548a	-0.10221203
65	0xbda6b884	-0.08140662
66	0xbb8845bd	-0.004158704
67	0xbda0af53	-0.078459404
68	0xbd9d4a00	-0.0768013
69	0xbdbb5d11	-0.091486104
70	0xbd911520	-0.070841074
71	0xbddca5ad	-0.10773788
72	0xbda99bfb	-0.08281704
73	0xbdd4a880	-0.10383701
74	0xbdfeeb75	-0.124472536
75	0xbdb2109d	-0.08694575
76	0xbd09856a	-0.0335745
77	0xbd9b2e7f	-0.07577228
78	0xbd91211c	-0.07086393
79	0xbd91c369	-0.0711735
80	0xbcbad84d	-0.022808218
81	0xbdd14ea3	-0.10220077
82	0xbdc8f086	-0.09811501
83	0xbdc724da	-0.09723826
84	0xbda0ad40	-0.07845545
85	0xbd79f883	-0.061028015
86	0xbdc9271a	-0.09821911
87	0xbdad7fd8	-0.0847165
88	0xbdd63a03	-0.104602836
89	0xbe06c8d2	-0.13162544
90	0xbcb00957	-0.021488829
91	0xbdead905	-0.114671744
92	0xbd8f1177	-0.06985753
93	0x3e118c17	0.14213596
94	0xbcf418b9	-0.029796945
95	0xbe041927	-0.1290022
96	0xbde28411	-0.11060346
97	0xbdb2d5d6	-0.08732192
98	0xbdd46a4d	-0.10371838
99	0xbdf6c0b2	-0.120484725

sequential_2/dense_8/MatMul f4 [100, 40]
0	0xbdaf11f5	-0.08548347
1	0xbe63f076	-0.22259697
2	0xbe03e4cf	-0.12880252
3	0xbe0a8278	-0.13526332
4	0xbe4488d5	-0.19192822
5	0xbbb1e854	-0.005429307
6	0xbdadadc3	-0.08480408
7	0xbbd7afca	-0.006582235
8	0x3afbf07d	0.0019221451
9	0x3a81314e	0.0009856613
10	0xbe43b44d	-0.19111748
11	0xbd7d0d74	-0.061780408
12	0xbdadccf3	-0.084863566
13	0x3dd58702	0.10426141
14	0xbd408a52	-0.047006913
15	0xbde3b624	-0.11118725
16	0xbe2fc70f	-0.17165779
17	0x3e8099c8	0.25117326
18	0xbc304fa5	-0.010761176
19	0xbcf66569	-0.030077653
20	0xbe033da1	-0.12816478
21	0x3e2b5797	0.16732632
22	0x3e03e5f8	0.12880695
23	0x3dcdd302	0.10050012
24	0xbd835b3c	-0.06413886
25	0x3e7bde28	0.24596465
26	0x3e7b1a7c	0.24521822
27	0xbe101b8d	-0.1407301
28	0x3dc96309	0.098333426
29	0x3bafcdc6	0.0053651063
30	0xbc46bb04	-0.012129549
31	0xbdddb973	-0.10826387
32	0xbe287218	-0.16449773
33	0xbcf81f40	-0.030288339
34	0x3e27279d	0.16323705
35	0xbcd3384b	-0.025783679
36	0xbe421424	-0.18952996
37	0x3d9d2b4d	0.076742746
38	0xbd3e668f	-0.046484526
39	0xbcb257a2	-0.021770302
40	0x3e1828a3	0.14859252
41	0xbe422708	-0.18960202
42	0x3e38554b	0.18001287
43	0x3e0582a3	0.13038115
44	0xbd970080	-0.07373142
45	0x3d104f3c	0.035231814
46	0x3de7e16a	0.11322291
47	0x3d7e3db4	0.062070563
48	0x3ddaab7e	0.10677241
49	0x3df2e0d6	0.1185929
50	0x3d7b8cbc	0.06141351
51	0x3bbb77c0	0.0057210624
52	0xbe45804c	-0.19287223
53	0xbe2b9bcd	-0.16758652
54	0xbda29204	-0.079380065
55	0x3e13a75f	0.14419316
56	0x3d4ab21c	0.049486265
57	0xbe250f54	-0.16119128
58	0x3dde42d6	0.10852592
59	0x3e17e0f9	0.14831914
60	0x3e437423	0.19087271
61	0xbbca1c60	-0.0061679333
62	0x3b3133c0	0.0027038902
63	0x3ae7e380	0.0017691702
64	0x3cd478f8	0.025936589
65	0x3d8fe57e	0.07026194
66	0xbd11d9f8	-0.03560826
67	0xbcd467b0	-0.025928348
68	0x3aeb9380	0.0017973036
69	0x3dbcb5a6	0.09214334
70	0xbcc25020	-0.023719847
71	0x3d226e14	0.03965576
72	0xbde7ef1b	-0.113249026
73	0xbe4098fc	-0.18808359
74	0xbd634684	-0.05548717
75	0xbe10d635	-0.14144213
76	0x3df88286	0.1213427
77	0xbc2c4b00	-0.010515928
78	0x3e2faa83	0.17154889
79	0xbd428c54	-0.04749711
80	0xbd71ff4f	-0.059081372
81	0x3d6450ef	0.055741247
82	0x3e5cb5ad	0.21553679
83	0xbd2e8751	-0.042609517
84	0x3d263d28	0.040585667
85	0x3d7a7494	0.061146334
86	0x3e3e4506	0.18581018
87	0xbcfa068b	-0.030520698
88	0x3e35d68f	0.17757629
89	0xbd642826	-0.05570235
90	0xbe059812	-0.13046291
91	0x3e612357	0.21986137
92	0x3dd8f82e	0.105942115
93	0xbacb8159	-0.001552622
94	0x3e57e090	0.21081758
95	0x3e208736	0.15676579
96	0x3d7d5787	0.06185105
97	0xbd0efc7c	-0.034908757
98	0x3de51a0e	0.1118661
99	0xbdcf9f69	-0.10137827
100	0x3e3be1b1	0.18347813
101	0xbcffdedb	-0.031234195
102	0xbccf1c2b	-0.025281986
103	0x3db52e2f	0.088466994
104	0x3e79c192	0.24390247
105	0x3e15d9a7	0.14633809
106	0x3df1c3c1	0.11804915
107	0x3e9a980f	0.30194137
108	0x3d5b0e15	0.053480227
109	0x3e884b08	0.26619744
110	0xbb910e7e	-0.0044267764
111	0xbbe96d4d	-0.0071236254
112	0x3df1281f	0.117752306
113	0xbde199d7	-0.11015671
114	0xbe00f33f	-0.12592791
115	0xbce30425	-0.027711937
116	0xbc1bbcfc	-0.009505507
117	0x3e5d648e	0.2162039
118	0xbc9fb7c4	-0.019496806
119	0xbd3752d0	-0.04475671
120	0xbd4c21ac	-0.0498368
121	0xbe575e7c	-0.21032137
122	0x3d526cb1	0.051373187
123	0xbd5bdab5	-0.053675372
124	0xbdaf90ac	-0.08572516
125	0x3e354ffd	0.17706294
126	0xbe19fc5e	-0.15037677
127	0xbc8452ed	-0.016152823
128	0x3dca1fc9	0.09869344
129	0xbda2a3a7	-0.079413705
130	0x3e387c69	0.18016209
131	0xbdd06301	-0.101751335
132	0x3dc97e72	0.09838571
133	0xbca53b80	-0.020169973
134	0xbddbf19e	-0.10739444
135	0xbe01460d	-0.12624379
136	0x3df91c4e	0.12163602
137	0xbe39480b	-0.18093888
138	0x3e436ab6	0.19083676
139	0x3d32c054	0.04364045
140	0x3dee06fa	0.116224244
141	0xbd5c4292	-0.053774424
142	0x3a009ef9	0.0004906501
143	0x3e325ffe	0.1741943
144	0xbd0e7f4b	-0.034789365
145	0x3d25d29e	0.040484063
146	0x3e527d38	0.2055558
147	0x3e550671	0.20803238
148	0x3e31d33f	0.1736574
149	0xbdce2ed0	-0.100675225
150	0x3e186271	0.14881302
151	0x3e6fcb86	0.23417482
152	0xbe4852fb	-0.19562905
153	0xbe469a16	-0.19394717
154	0x3d939b03	0.072073005
155	0xbdd079d5	-0.101794876
156	0x3d92177b	0.07133385
157	0x3de78fce	0.113067254
158	0x3e1de44d	0.15419121
159	0x3d7d038b	0.061770957
160	0xbdb36f4c	-0.087614626
161	0xbe64d931	-0.22348477
162	0xbda902f8	-0.08252519
163	0xbc9a479f	-0.01883298
164	0x3c2e59f0	0.01064156
165	0x3e82a85e	0.2551908
166	0xbdef29f0	-0.11677921
167	0x3d835d59	0.06414289
168	0x3e3397b6	0.17538342
169	0x3949a65b	0.00019230826
170	0xbde53732	-0.11192168
171	0x3e03e39d	0.12879796
172	0x3e037972	0.12839296
173	0x3daa6e7e	0.08321856
174	0xbd2bd621	-0.041952256
175	0x3e12121c	0.1426472
176	0xbdf0cb9f	-0.11757588
177	0x3e3d974e	0.1851475
178	0xbe47688b	-0.19473474
179	0x3d4296e3	0.047507178
180	0xbc1392d2	-0.009007173
181	0xbda0a51e	-0.078439936
182	0xbd2d8402	-0.04236222
183	0xbd469756	-0.04848417
184	0xbdf1ce9d	-0.118069865
185	0xbd4513b9	-0.048114512
186	0x3e4f8ef8	0.20269382
187	0x3e67a8ff	0.2262306
188	0x3e5e3d25	0.21703012
189	0x3e34754d	0.17622872
190	0xbe1632ff	-0.14667891
191	0x3e0350aa	0.1282374
192	0x3dfe3d7c	0.12414071
193	0xbcdc105f	-0.026863275
194	0xbd93a741	-0.072096355
195	0xbc9d1b18	-0.019177958
196	0x3e2fc728	0.17165816
197	0xbd0e7768	-0.034781843
198	0xbdd199a4	-0.10234383
199	0x3d7035ae	0.058644943
200	0xbbd24b80	-0.0064176917
201	0xbdff072c	-0.1245254
202	0x3c9535d0	0.018214136
203	0xbdea5ca8	-0.11443454
204	0x3da62da2	0.081141725
205	0x3d3d6a0c	0.046243712
206	0xbe4e14eb	-0.20125167
207	0xbcad2ee8	-0.02114053
208	0x3d888a56	0.066670105
209	0x3e46027d	0.19336887
210	0xbe198204	-0.14991003
211	0x3c199140	0.009373009
212	0xbe4151fb	-0.1887893
213	0x3e134f6b	0.14385764
214	0x3df7bdc6	0.12096743
215	0x3c847f90	0.016174108
216	0xbaa7df80	-0.0012807697
217	0x3e2d5159	0.16925563
218	0xbdfd2461	-0.12360454
219	0x3d46880c	0.04846959
220	0xbda31e1e	-0.07964729
221	0x3d2a02fc	0.041506752
222	0xbe3a23a5	-0.1817766
223	0x3e454f07	0.19268428
224	0x3e420439	0.18946923
225	0xbe3129c1	-0.17301084
226	0xbcff62c8	-0.031175032
227	0x3e27cc35	0.16386493
228	0xbdfe9ff9	-0.12432856
229	0xbe46c399	-0.19410552
230	0xbdbec9a2	-0.09315802
231	0x3e296311	0.16541697
232	0xbb815c80	-0.0039477944
233	0xbe181eae	-0.14855453
234	0xbdb46bed	-0.08809648
235	0xbcaea990	-0.021321088
236	0x3df45952	0.11931099
237	0xbc1009c0	-0.008791387
238	0xbda87027	-0.08224516
239	0x3e06bff3	0.1315916
240	0xbddf1c8a	-0.10894115
241	0xbdcc1dee	-0.09966646
242	0x3e2b779c	0.16744846
243	0xbde4d207	-0.11172872
244	0xbe7cbe16	-0.24681887
245	0xbcbb8d37	-0.022894485
246	0x3e089421	0.13337757
247	0xbdb6a787	-0.08918672
248	0x3dd7d5fd	0.10538862
249	0x3e7a4269	0.24439396
250	0xbbf081a0	-0.0073396713
251	0xbcc0d2b7	-0.023537977
252	0xbc078edc	-0.008273806
253	0xbd5eb508	-0.054371864
254	0x3e0710b4	0.13189965
255	0xbd93ab15	-0.07210366

sequential_2/dense_9/MatMul f4 [200, 100]
0	0x3d536bc6	0.051616453
1	0x3d619424	0.05507292
2	0x3df751ef	0.120761745
3	0x3e26af1d	0.16277738
4	0xbc83f757	-0.016109152
5	0x3e0a2b15	0.13492997
6	0xbcebbf5f	-0.028777776
7	0xbdd69485	-0.104775466
8	0xbdfb0aef	-0.12257945
9	0x3dbca5f7	0.09211343
10	0xbd76ac09	-0.06022266
11	0x3c55569e	0.013021139
12	0x3d0e3a1d	0.03472339
13	0xbe048363	-0.12940745
14	0xbdea4153	-0.11438241
15	0xbd6df55b	-0.058095317
16	0x3d80827b	0.06274887
17	0x3dd5eac6	0.1044517
18	0x3b08d83f	0.0020880846
19	0x3d6a29e8	0.05716887
20	0xbcb4f138	-0.022087678
21	0x38b4d30b	8.622379e-05
22	0x3bbeb3c4	0.0058197696
23	0x3d90edae	0.07076584
24	0x3e19bb38	0.15012825
25	0xbdeceaab	-0.11568197
26	0xbe0ced47	-0.13762389
27	0xbe053fbd	-0.13012595
28	0x3bfafec0	0.007659763
29	0xbe0af44a	-0.13569751
30	0xbda696e2	-0.08134247
31	0xbdc68cac	-0.096948
32	0xbd7ab599	-0.06120834
33	0x3e001c75	0.12510855
34	0x3e0367d1	0.12832572
35	0x3d48c1f3	0.04901309
36	0x3d482f2a	0.048873104
37	0xbd2ade70	-0.04171604
38	0xbdda76b1	-0.1066717
39	0xbe02040e	-0.12696859
40	0x3dd69c05	0.10478977
41	0x3dc5ada9	0.09652264
42	0x3d8bd153	0.06827035
43	0x3ded6db4	0.1159319
44	0x3ca00d08	0.019537464
45	0xbbfaafa0	-0.0076503307
46	0xbe091399	-0.13386382
47	0xbd074229	-0.03302208
48	0xbda206a8	-0.07911426
49	0x3d734a10	0.059396803
50	0x3de1f027	0.110321335
51	0xbdd59d11	-0.10430349
52	0x3c920af0	0.017827481
53	0x3d72beaa	0.059263863
54	0xbbe0b120	-0.0068570524
55	0x3dd49f29	0.1038192
56	0x3e0c74ab	0.1371638
57	0x3e075593	0.13216238
58	0x3e13b913	0.14426069
59	0x3e0bcf43	0.13653283
60	0x3d1566ca	0.03647498
61	0xbd8a752d	-0.06760631
62	0xbb6b9950	-0.0035949536
63	0xbdb07096	-0.08615224
64	0xbcd1735a	-0.0255677
65	0x3d8b12fc	0.0679073
66	0x3dc9751a	0.098367885
67	0xbd30ed27	-0.043194916
68	0x3e02352d	0.12715597
69	0xbbd3a5a0	-0.006458953
70	0xbded63b3	-0.11591282
71	0xbdcd744e	-0.10031949
72	0x3d15b148	0.03654602
73	0xbde20229	-0.11035568
74	0xbce4950e	-0.027903106
75	0xbcf294d0	-0.029611975
76	0xbaf4f0e1	-0.001868751
77	0xbe059650	-0.13045621
78	0xbdef9828	-0.116989434
79	0x3def61b6	0.11688559
80	0x3c0fde52	0.008781033
81	0xbdb9d53c	-0.09073874
82	0x3d426498	0.047459215
83	0x3d291379	0.041278336
84	0x3cf2cea8	0.029639557
85	0xbd387ab4	-0.045038894
86	0xbdeab41f	-0.114601366
87	0x3dc93245	0.09824041
88	0xbdbf8d4d	-0.09353123
89	0x3dc6e74f	0.09712087
90	0xbdb90bfa	-0.090354875
91	0xbd803d93	-0.06261744
92	0xbe0aff88	-0.1357404
93	0xbdfa0da8	-0.12209636
94	0xbdeda1fe	-0.11603163
95	0x3b7d29e8	0.0038629714
96	0x3dbe697c	0.09297463
97	0x3cacd090	0.021095544
98	0x3d656414	0.056003645
99	0x3e0c887b	0.13723938
100	0xbd0fbbd1	-0.035091225
101	0xbdc28072	-0.09497155
102	0xbc631046	-0.01385886
103	0xbc201abc	-0.009771999
104	0x3d884823	0.06654384
105	0x3d502e5c	0.05082546
106	0xbc0641ed	-0.008194429
107	0xbc3150d2	-0.010822492
108	0x3d3cd372	0.046100087
109	0x3df5c6e6	0.120008275
110	0xbdfcd015	-0.12344376
111	0x3e06b604	0.13155371
112	0xbc99235e	-0.018693622
113	0x3c9c7250	0.019097477
114	0xbbc5f218	-0.0060408227
115	0xbd8c627d	-0.06854723
116	0x3de19236	0.11014216
117	0xbd8e5e12	-0.06951536
118	0xbdaa0f5d	-0.083037116
119	0x3dd7e2de	0.10541318
120	0x3d9b0ca5	0.07570771
121	0x3d532d48	0.051556855
122	0x3db4119b	0.087924205
123	0x3cb9fce8	0.022703603
124	0xbd8e4701	-0.06947137
125	0xbdb75652	-0.08952011
126	0xbdfd7877	-0.123764925
127	0xbd419be2	-0.047267802
128	0xbe013d2d	-0.12620993
129	0x3cb4bb00	0.022061825
130	0x3c45f6c0	0.012082756
131	0x3da75684	0.081707984
132	0x3b0078b1	0.0019603188
133	0x3dccc1c6	0.09997897
134	0x3d0665e8	0.03281203
135	0x3dc5cfb2	0.09658755
136	0x3d9072ff	0.07053184
137	0xbdb14c5b	-0.08657142
138	0xbd70c70b	-0.058783572
139	0xbc2f2886	-0.010690814
140	0x3d5eb1e0	0.054368854
141	0x3df606da	0.120130256
142	0xbc159916	-0.009130737
143	0xbdc9ccec	-0.09853539
144	0x3d041ef8	0.032256097
145	0x3ce859e8	0.028363183
146	0x3c62935f	0.013829081
147	0x3c59941d	0.013279942
148	0xbe15fc3d	-0.14647003
149	0xbda20d37	-0.07912677
150	0x3cf9ae9b	0.030478766
151	0xbd93ff58	-0.07226437
152	0xbdc9ce96	-0.09853856
153	0xbdaa8bb5	-0.08327428
154	0xbe0c8733	-0.1372345
155	0xbdd960e0	-0.106141806
156	0xbd55d800	-0.052207947
157	0x3d2323ac	0.03982894
158	0xbd89c28f	-0.06726562
159	0xbc80b438	-0.015710935
160	0xbda9c4e3	-0.08289506
161	0x3d05715b	0.032578807
162	0x3ca8e97d	0.020619148
163	0x3a2d0300	0.00065998733
164	0xbe0f1c06	-0.13975534
165	0xbe012831	-0.12612988
166	0x3dcd69f2	0.10029973
167	0xbc9abe15	-0.018889466
168	0xbd476f0e	-0.048689894
169	0xbd865fd4	-0.065612465
170	0xbdac11dd	-0.08401845
171	0xbd83122a	-0.06399949
172	0xbdc81599	-0.097697444
173	0x3cf89f1d	0.030349309
174	0xbdc16ea5	-0.09444932
175	0xbde261ff	-0.110538475
176	0xbd8c7a79	-0.06859297
177	0xbc670c30	-0.014102027
178	0xbdbc86db	-0.09205409
179	0xbcfa9528	-0.030588701
180	0xbdb457c5	-0.08805803
181	0xbd06d67b	-0.03291939
182	0x3dac5460	0.08414531
183	0xbdb68dbe	-0.08913754
184	0xbd0ca7dc	-0.03433977
185	0xbc5116db	-0.012761797
186	0xbd3c1b27	-0.045924332
187	0x3dfcf83a	0.12352033
188	0x3de15fe3	0.11004617
189	0xbb5c2240	-0.003358975
190	0xbd7032bc	-0.058642134
191	0xbdb22688	-0.086987555
192	0xbdde6cbc	-0.10860583
193	0xbd7e91d4	-0.06215079
194	0x3dd60ede	0.104520544
195	0xbde790d8	-0.11306924
196	0xbd27bd1c	-0.040951833
197	0xbdd8e4a0	-0.10590482
198	0x3c6ef19e	0.014583973
199	0xbde5c88d	-0.11219893
200	0xbdfa4dc4	-0.12221864
201	0xbd4ca104	-0.049958244
202	0xbd9002d9	-0.07031793
203	0xbd3536cb	-0.044241708
204	0x3e0f26e2	0.13979676
205	0x3dc127b2	0.094313994
206	0xbdb2ba33	-0.08726921
207	0xbd1a7a45	-0.03771426
208	0xbd69f882	-0.05712176
209	0x3dc6fefa	0.09716602
210	0xbd90ad2b	-0.07064279
211	0x3d930aa3	0.07179763
212	0xbd8f48c2	-0.06996299
213	0x3e04a6d1	0.1295426
214	0x3be4fccb	0.006988143
215	0xbda33337	-0.07968753
216	0xbcd0aec2	-0.025473956
217	0xbd9af303	-0.07565882
218	0x3dd7479e	0.10511707
219	0x3d15e47a	0.036594845
220	0xbdf9e99a	-0.12202759
221	0xbdf337d2	-0.11875881
222	0x3cbf463e	0.023348924
223	0x3c5f8360	0.013642162
224	0x3dfd9c4b	0.12383326
225	0x3db021ac	0.086001724
226	0x3dfb59c3	0.1227298
227	0xbcf2ce93	-0.029639518
228	0x3d2146fc	0.039374337
229	0xbd831187	-0.063998275
230	0xbdd77928	-0.105211556
231	0xbd87236d	-0.06598554
232	0x3c54174a	0.012945006
233	0xbc44b3c0	-0.012005746
234	0x3bba9b00	0.005694747
235	0x3dbcfc3e	0.09227799
236	0xbd2fd712	-0.042929716
237	0x3dccc522	0.099985376
238	0xbddd5a1b	-0.10808202
239	0xbd066bd2	-0.03281767
240	0x3c91e1fc	0.017807953
241	0x3d73cbd2	0.05952055
242	0x3d0325cb	0.032018464
243	0xbdb3fa86	-0.08788018
244	0x3daa6a88	0.083211005
245	0x3d680e04	0.05665399
246	0xbd96ac24	-0.07357052
247	0x3b8b7d1e	0.0042568585
248	0x3c189570	0.009312972
249	0x3d5bba53	0.05364449
250	0x3cb50f54	0.022102036
251	0x3ccfb449	0.025354521
252	0xbbb34e00	-0.005471945
253	0x3cd6f121	0.026238026
254	0x3dcfc2e6	0.10144596
255	0xbd5f92e3	-0.05458344

sequential_2/dense_10/MatMul f4 [100, 200]
0	0xbe07eb05	-0.13273247
1	0xbae0adf2	-0.0017141683
2	0x3dab454f	0.08362829
3	0xbe1962ea	-0.14979139
4	0xbcfcdc08	-0.030866638
5	0x3cea14b2	0.028574321
6	0x3c221f32	0.009895133
7	0xbdf85292	-0.12125124
8	0xbdb92f6f	-0.0904225
9	0xbc62f395	-0.01385202
10	0x3d64564b	0.055746358
11	0x3c9d3085	0.019188175
12	0xbd8ed1a2	-0.06973578
13	0x3d70b1c0	0.058763266
14	0xbd8067fd	-0.06269834
15	0xbdba6fee	-0.0910338
16	0xbd02fc7a	-0.03197906
17	0xbda02235	-0.078190245
18	0x3df6736e	0.12033735
19	0x3db3b5a2	0.08774878
20	0xbdbeb53c	-0.093119115
21	0x3e032b8b	0.12809579
22	0xbd01b1f4	-0.03166385
23	0xbcf0d9e7	-0.029400779
24	0xbdfaa603	-0.122386955
25	0xbe344611	-0.17604853
26	0x3cb6ea5d	0.02232855
27	0xbe0057d7	-0.12533508
28	0x3d8a92da	0.06766291
29	0x3d8b38bb	0.0679793
30	0x3de78ffc	0.1130676
31	0xbda0f257	-0.07858723
32	0x3c69c72f	0.0142686805
33	0x3dbb7a25	0.091541566
34	0xbc075c00	-0.008261681
35	0x3d40c7af	0.047065433
36	0xbd084da6	-0.033277176
37	0xbd5732b2	-0.05253858
38	0x3dd925d0	0.10602915
39	0x3d92f6a5	0.0717595
40	0x3d1f0b85	0.038829345
41	0xbdebb32f	-0.11508786
42	0x3d6e2763	0.05814303
43	0xbd808c82	-0.062768
44	0x3d7c3caf	0.06158131
45	0x3d954d9b	0.07290193
46	0xbcb71bdb	-0.02235215
47	0xbd7aecf1	-0.06126112
48	0xbe1ae944	-0.15128046
49	0xbd778bae	-0.060435943
50	0x3d9adf51	0.075621255
51	0xbe11ccf3	-0.14238338
52	0xbe194545	-0.1496783
53	0xbd36f4ad	-0.044666935
54	0xbd0a2ca0	-0.033733964
55	0x3d33cc4c	0.043896005
56	0xbdf9643c	-0.12177321
57	0x3da24e94	0.07925144
58	0x3d9691de	0.07352041
59	0xbbe6347e	-0.0070253005
60	0xbb8c9d7a	-0.0042912336
61	0xbd5003c5	-0.050784845
62	0xbd230279	-0.03979728
63	0xbd97a365	-0.07404212
64	0x3c773395	0.015087982
65	0xbcc6b0e0	-0.024254262
66	0xbe02ceac	-0.12774152
67	0xbdfc184f	-0.12309324
68	0xbd1f8967	-0.038949396
69	0x3d9d0522	0.07666995
70	0xbdbc8123	-0.092043184
71	0xbe211f3a	-0.15734568
72	0x3df5bb6c	0.119986385
73	0x3d634b17	0.055491533
74	0xbdeaf86c	-0.11473164
75	0x3b942d7e	0.0045220247
76	0xbddd7917	-0.10814112
77	0x3bd93a3d	0.006629257
78	0x3db0ca3d	0.08632324
79	0xbd3df522	-0.046376355
80	0xbb9ab4a2	-0.00472124
81	0x3d23f642	0.04002977
82	0x3dd119bd	0.10209987
83	0xbdde80af	-0.10864388
84	0x3ca83f74	0.02053807
85	0x3d9c8d96	0.07644193
86	0x3df15503	0.11783793
87	0x3dab5ed5	0.08367697
88	0xbdf11929	-0.11772377
89	0xbc59a766	-0.01328454
90	0x3a8d2772	0.0010769202
91	0xbcc7d576	-0.024393778
92	0xbaa3c054	-0.0012493231
93	0xbd72743c	-0.05919288
94	0xbd912067	-0.070862584
95	0xbde64634	-0.11243859
96	0xbd143282	-0.03618098
97	0xbd58e298	-0.05295047
98	0x3cce330b	0.025170824
99	0xbd8b548f	-0.06803238
100	0x3cf6f16d	0.030144418
101	0x3cc2c178	0.023773894
102	0xbd3c282a	-0.04593674
103	0x3c896915	0.01677374
104	0xbd7a7229	-0.061144028
105	0xbcf961cf	-0.030442147
106	0xbdb431c2	-0.08798553
107	0x3cd52a0d	0.026021028
108	0xbde95bf0	-0.11394489
109	0xbc902f6e	-0.017600741
110	0xbdbb9876	-0.09159939
111	0x3d94463d	0.072399594
112	0x3db02f4f	0.086027734
113	0x3d0b2a41	0.033975843
114	0xbd6a52cb	-0.057207864
115	0xbdfd1a8b	-0.12358578
116	0xbe18be22	-0.1491628
117	0x3d3638e1	0.044487838
118	0x3c9a4c38	0.018835172
119	0xbc90183d	-0.017589683
120	0xbda2c2d4	-0.07947317
121	0xbd191690	-0.037375033
122	0xbd3e5be2	-0.046474345
123	0x3da18550	0.078867555
124	0x3dcf15db	0.101115905
125	0x3c7549cb	0.014971207
126	0xbc1af8ff	-0.009458779
127	0xbdeb13cd	-0.11478386
128	0x3d0c01a3	0.03418125
129	0xbd479330	-0.048724353
130	0xbd64b4cb	-0.05583648
131	0x3d46ae08	0.048505813
132	0x3d0e3aa2	0.034723885
133	0xbe048794	-0.12942344
134	0xbdb9813e	-0.09057854
135	0x3d051fb6	0.032500945
136	0xbd642fc8	-0.05570963
137	0x3cd367a7	0.025806261
138	0xbdb3be83	-0.087765716
139	0x3d66bb11	0.056330744
140	0x3d8cb86c	0.06871113
141	0x3db61d53	0.08892312
142	0x3df08565	0.11744193
143	0x3e023b2b	0.12717883
144	0x3db6a2c7	0.08917766
145	0x3ca4ead8	0.020131513
146	0xbdea58e7	-0.11442738
147	0xbe054f63	-0.13018565
148	0xbd82ca3d	-0.0638623
149	0xbd0eb287	-0.034838226
150	0x3c8b6876	0.017017584
151	0xbd132f05	-0.035933513
152	0x3d50593d	0.050866354
153	0xbd3d282b	-0.046180885
154	0xbc345695	-0.011006971
155	0x3d820372	0.063483134
156	0xbcaa4f3a	-0.020789731
157	0xbe22648f	-0.15858673
158	0xbd196e0a	-0.037458457
159	0xbdff1efe	-0.12457083
160	0xbdfd2385	-0.123602904
161	0x3d6a32d9	0.0571774
162	0xbd725db9	-0.059171412
163	0xbd8fa17c	-0.070132226
164	0xbe0f52ea	-0.13996473
165	0xbd9be026	-0.07611112
166	0x3da3f2b3	0.080052756
167	0xbd3beebd	-0.045881975
168	0xbdb82648	-0.089916766
169	0x3da5db6c	0.08098492
170	0xbd8ee183	-0.06976607
171	0xbd33127b	-0.043718796
172	0x3d7848da	0.06061635
173	0x3cae92fa	0.021310318
174	0xbdade399	-0.084906764
175	0x3d4a0850	0.049324334
176	0x3e0214ea	0.1270329
177	0xbdc63d50	-0.09679663
178	0xbdeaf071	-0.11471642
179	0xbd12f038	-0.03587362
180	0x3dec464e	0.11536847
181	0xbe0b663f	-0.13613223
182	0x3da01546	0.078165576
183	0x3d9f440d	0.077766515
184	0x3ded1bea	0.1157759
185	0xbda73bed	-0.08165727
186	0x3df171fd	0.1178932
187	0xbdf8c3c6	-0.12146716
188	0x3d3575dc	0.044301853
189	0x3dd7b371	0.105322726
190	0xbd6c8a1e	-0.057748906
191	0xbe05dd52	-0.13072708
192	0xbcc8e28b	-0.024522087
193	0x3d52935b	0.05141006
194	0xbd7aad44	-0.061200395
195	0x3da9d7bb	0.082931004
196	0x3ccede87	0.025252594
197	0xbd826612	-0.063671246
198	0xbdea6f77	-0.114470415
199	0x3d238911	0.03992564
200	0xbdf308bf	-0.118669026
201	0x3e064651	0.13112761
202	0x3d4c1bb6	0.049831115
203	0xbd8f88a2	-0.070084825
204	0x3de46aea	0.11153205
205	0x3d87478f	0.066054456
206	0xbe229468	-0.15876925
207	0x3d83d823	0.06437709
208	0xbd75cff9	-0.06001279
209	0x3dbcabd0	0.09212458
210	0xbbad2278	-0.00528365
211	0xbe00d7ca	-0.12582317
212	0x3d4c8e13	0.04994018
213	0xbe0981d0	-0.13428426
214	0xbdbb6463	-0.091500066
215	0xbcb01729	-0.021495419
216	0xbe324cfb	-0.17412178
217	0x3c8cf82d	0.017208183
218	0x3e16c7a2	0.14724591
219	0x3cdabfc5	0.026702771
220	0xbcfac9f1	-0.030613871
221	0xbd1d930a	-0.038470306
222	0x3de81099	0.11331291
223	0xbe0a0bd7	-0.13481079
224	0x3cc229c9	0.023701565
225	0x3d8292a9	0.063756295
226	0xbd6f0c59	-0.058361385
227	0xbddaaf05	-0.106779136
228	0xbdac8e0d	-0.084255315
229	0xbcdb74c9	-0.026789086
230	0xbce92d77	-0.028464062
231	0x3d941557	0.07230633
232	0xbd0e1936	-0.03469201
233	0xbd7e56fd	-0.062094677
234	0xbdd0df11	-0.101987965
235	0xbcd50cfd	-0.02600717
236	0xbe18e118	-0.14929616
237	0xbd20fbdf	-0.039302703
238	0xbe0bd742	-0.13656333
239	0xbd3ef1d3	-0.04661734
240	0x3e09caef	0.1345632
241	0xbde9998b	-0.11406239
242	0x3d0281d9	0.031862114
243	0x3cf16b93	0.02947024
244	0x3dc59d0b	0.09649094
245	0x3dc53810	0.09629834
246	0xbd3a9b57	-0.0455583
247	0xbe2d80f9	-0.1694373
248	0xbdd13d26	-0.10216741
249	0x3d0d162f	0.034444984
250	0x3d26c13c	0.040711626
251	0xbe44eb8b	-0.19230478
252	0xbdb16f1c	-0.086637706
253	0xbe0969da	-0.13419285
254	0xbdf41e3c	-0.11919829
255	0x3d860952	0.065447465

sequential_2/dense_11/MatMul f4 [5, 100]
0	0xbe31563e	-0.17318055
1	0x3d2d6799	0.042335127
2	0x3e12501b	0.1428837
3	0x3da41af0	0.080129504
4	0x3e17d86b	0.1482865
5	0xbd37ea90	-0.04490143
6	0x3d38b4e0	0.04509437
7	0xbdb12457	-0.086495094
8	0xbe2f5883	-0.17123608
9	0x3dbef599	0.09324188
10	0xbdc29584	-0.09501174
11	0xbdb23e93	-0.08703341
12	0xbe1aec13	-0.15129118
13	0xbd266e1d	-0.040632356
14	0xbe0a5a4b	-0.13511007
15	0x3e1bee7e	0.15227696
16	0xbda36df3	-0.079799555
17	0x3d8cf72b	0.06883081
18	0x3b7d6098	0.003866231
19	0xbdc4b992	-0.09605707
20	0x3c4757e3	0.01216695
21	0x3d9902ba	0.07471223
22	0xbdc33f03	-0.09533503
23	0xbce9fd4a	-0.02856316
24	0x3c5c0771	0.013429509
25	0x3dbcd78f	0.09220802
26	0xbde99b33	-0.11406555
27	0x3cde480b	0.027133962
28	0x3c94c75f	0.018161474
29	0x3d5fcbe0	0.05463779
30	0xbceae3c9	-0.02867307
31	0xbc067fd3	-0.008209187
32	0x3d26302c	0.040573284
33	0xbe379196	-0.1792663
34	0xbdbdc18f	-0.09265434
35	0x3d31bdd1	0.043393914
36	0xbb04e60c	-0.002027872
37	0xbe3a673a	-0.1820344
38	0x3e475020	0.19464159
39	0xbcae93f2	-0.02131078
40	0xbe469ce7	-0.19395791
41	0xbdc46d5d	-0.09591172
42	0x3cca3533	0.02468357
43	0xbe55ee4e	-0.20891687
44	0x3d005c65	0.031338114
45	0xbd86af63	-0.06576421
46	0x3e14fb92	0.14549091
47	0xbe2fb7a3	-0.17159896
48	0x3da36700	0.0797863
49	0xbda3746d	-0.07981191
50	0xbcde8c68	-0.02716656
51	0x3e27f23e	0.16401002
52	0x3d3ebe05	0.046567935
53	0xb9c08474	-0.0003671978
54	0x3dbfb0d4	0.09359899
55	0xbc362e06	-0.011119371
56	0xbe00c007	-0.12573253
57	0xbd00e137	-0.03146478
58	0xbc9fc17d	-0.019501442
59	0xbc7ae703	-0.015313867
60	0x3dac3af4	0.08409682
61	0xbdf0dd7d	-0.117609955
62	0xbd5677b3	-0.052360248
63	0xbd08ce49	-0.033399854
64	0x3e4e618f	0.20154403
65	0x3d921e6d	0.071347095
66	0xbe0e5b6d	-0.13902064
67	0xbe20a2fc	-0.15687174
68	0x3de5fbed	0.11229692
69	0xbda46356	-0.08026759
70	0xbbfc7400	-0.007704258
71	0x3e2df580	0.16988182
72	0x3de3c745	0.11121992
73	0xbdd297ab	-0.102828346
74	0xbde07b96	-0.10961072
75	0xbd19538d	-0.037433196
76	0xb861f47f	-5.3871885e-05
77	0x3df228b2	0.11824168
78	0x3cd30d37	0.025763137
79	0x3cbded72	0.023184512
80	0xbe1ee322	-0.15516332
81	0x3e37067b	0.17873566
82	0xbd9e38e8	-0.07725698
83	0xbd8961ae	-0.06708084
84	0xbdbf896d	-0.09352384
85	0x3dadd896	0.08488576
86	0x3e54c7e3	0.20779376
87	0x3ddba3fa	0.107246354
88	0x3c8fbe3a	0.017546762
89	0x3dec71a7	0.11545115
90	0xbdb374cc	-0.087625116
91	0xbdada1a4	-0.08478096
92	0xbe05ca0b	-0.13065355
93	0x3b42a3ea	0.0029699751
94	0xbe0fc226	-0.14038906
95	0xbc4ddfe2	-0.012565585
96	0x3d939b9c	0.072074145
97	0x3da0ee03	0.07857897
98	0xbe4f6f55	-0.20257314
99	0x3db25098	0.08706778
100	0x3e2ee565	0.17079695
101	0xbe282fc0	-0.16424465
102	0x3e08bae4	0.13352543
103	0xbe0e4d2b	-0.13896625
104	0xbe491a91	-0.1963904
105	0xbdbbb945	-0.09166197
106	0x3e03c2a2	0.12867215
107	0xbdd12ccd	-0.10213623
108	0x3d8c6c12	0.0685655
109	0x3de74eed	0.11294351
110	0xbe4022fa	-0.18763342
111	0x3de19996	0.11015622
112	0xbde6a08e	-0.11261092
113	0xbcf34402	-0.029695515
114	0x3dad3d19	0.08458919
115	0xbd9127d4	-0.07087675
116	0xbdf807dc	-0.12110874
117	0x3e30f681	0.17281534
118	0xbe02dff4	-0.12780744
119	0xbe487fd8	-0.19580019
120	0x3deb5be3	0.114921354
121	0x3dca8764	0.09889105
122	0x3dbb4cce	0.09145509
123	0x3d7e12bb	0.06202958
124	0x3d8df957	0.069323234
125	0x3e1cea0a	0.15323654
126	0xbe427df9	-0.18993367
127	0x3d1ff916	0.039055906
128	0x3de13642	0.10996677
129	0x3d8397d1	0.06425441
130	0xbdade910	-0.08491719
131	0xbe52fc4e	-0.20604059
132	0x3d61a563	0.055089366
133	0x3a99f05f	0.001174461
134	0x3da2e397	0.079535656
135	0x3d0be9e0	0.034158587
136	0x3d95028a	0.07275875
137	0x3e192b0d	0.14957829
138	0x3d9e65b2	0.077342406
139	0xbd94d11b	-0.07266446
140	0x3e4b44d4	0.19850475
141	0xbe21de6b	-0.15807502
142	0xbe0be506	-0.13661584
143	0xbde2efc3	-0.11080887
144	0xbdbe3b19	-0.09288616
145	0x3db36bc5	0.0876079
146	0x3df783c1	0.12085677
147	0xbdf9638c	-0.1217719
148	0xbd46d8ed	-0.04854672
149	0xbdb62415	-0.08893601
150	0x3de198b7	0.11015456
151	0x3e2f8c2d	0.17143317
152	0x3e13f6e9	0.14449657
153	0xbce90d7e	-0.028448816
154	0xbd04adfb	-0.032392483
155	0xbde349ec	-0.11098084
156	0xbdbf8b84	-0.09352782
157	0x3e1fe664	0.15615231
158	0xbc8a4c77	-0.016882164
159	0xbe58764c	-0.21138877
160	0x39ac0c5c	0.00032815605
161	0xbe47e2cc	-0.1952011
162	0xbe207cfd	-0.15672679
163	0xbd3e5e4a	-0.04647664
164	0x3e0ba8b6	0.13638577
165	0xbe4e676e	-0.20156643
166	0xbde48f29	-0.11160118
167	0x3e335556	0.17513022
168	0x3b0f89d0	0.002190221
169	0x3e10dc31	0.14146496
170	0x3d835a0f	0.06413662
171	0xbe16c688	-0.14724171
172	0x3e35ea20	0.17765093
173	0xbc90e6e2	-0.017688219
174	0xbe2f83fa	-0.17140189
175	0xbe202d96	-0.1564239
176	0xbdda55df	-0.1066091
177	0x3c8b0cbf	0.016973851
178	0xbaedbc07	-0.0018137702
179	0x3e54a2ad	0.20765181
180	0xbd122c43	-0.035686743
181	0xbe33d3d6	-0.17561278
182	0x3c20a453	0.009804803
183	0x3d532bec	0.05155556
184	0x3cb24aa7	0.021764113
185	0xbe0c9736	-0.13729557
186	0xbe4ea236	-0.20179066
187	0x3bcd75b7	0.006270136
188	0xbe11c91e	-0.14236876
189	0x3e1901a2	0.14942029
190	0xbe0d21e7	-0.13782464
191	0x3d9703c0	0.07373762
192	0xbc796ee6	-0.015224194
193	0xbcd6358d	-0.026148582
194	0xbdffd611	-0.12492002
195	0x3d2c0cdc	0.04200445
196	0xbdaef6d0	-0.085431695
197	0xbb983b78	-0.004645761
198	0x3df3ceac	0.11904654
199	0xbb14b7d8	-0.0022692587
200	0x3e079cd4	0.13243419
201	0x3dfb0356	0.12256496
202	0xbe075add	-0.13218255
203	0xbcdb57da	-0.02677529
204	0xbe06cbfe	-0.13163754
205	0x3de5a0a2	0.11212279
206	0x3d1ae263	0.037813555
207	0xbd621c72	-0.05520291
208	0xbe3ae226	-0.18250331
209	0x3e2cdec2	0.1688185
210	0xbe5910d2	-0.21197823
211	0x3cdea62b	0.027178844
212	0xbe319dc9	-0.17345347
213	0xbd83f329	-0.064428635
214	0xbe08460f	-0.13307975
215	0x3e176d40	0.1478777
216	0x3b9e7a82	0.0048363814
217	0xbe416df8	-0.18889606
218	0x3e133603	0.14376073
219	0xbe329689	-0.17440237
220	0x3e28fba7	0.16502248
221	0xbe258727	-0.16164838
222	0xbe4b0339	-0.19825448
223	0x3cf20230	0.029542059
224	0xbd8e60c1	-0.06952048
225	0xbe29c012	-0.16577175
226	0xbe09fce4	-0.13475376
227	0x3e0f0795	0.13967736
228	0x3bb4388a	0.005499904
229	0x3dcb86ab	0.09937795
230	0x3d527867	0.051384356
231	0xbdaa06a2	-0.08302046
232	0xbe03a3a6	-0.12855396
233	0x3d8323bc	0.064033
234	0xbdeeaa39	-0.11653561
235	0x3baeb98d	0.005332178
236	0x3dd8e303	0.10590174
237	0xbda97c95	-0.08275715
238	0xbd9723ed	-0.07379899
239	0x3c248eb1	0.010043786
240	0x3e464192	0.1936095
241	0x3e518b69	0.20463337
242	0x3c9d03f2	0.01916692
243	0xbe431b8b	-0.19053476
244	0x3e403f46	0.18774137
245	0xbe01bb1c	-0.12669033
246	0xbdd037a0	-0.101668596
247	0x3dd7f863	0.10545423
248	0x3dcd08b5	0.10011426
249	0xbda1c3b1	-0.07898653
250	0x3e2ae517	0.16688953
251	0x3e52c2f4	0.20582181
252	0xbdd97121	-0.10617281
253	0xbb270aee	-0.0025488692
254	0x3dfafd55	0.122553505
255	0xbdebb4bb	-0.11509081
